…
for this repo, but the 'hf_xet' package is not installed. Falling back to regular HTTP download. For better performance, install the package with: `pip install huggingface_hub[hf_xet]` or `pip install hf_xet`\n"]},{"output_type":"display_data","data":{"text/plain":["model.safetensors:   0%|          | 0.00/440M [00:00<?, ?B/s]"],"application/vnd.jupyter.widget-view+json":{"version_major":2,"version_minor":0,"model_id":"f0fa17edecb848108439562bffe358ed"}},"metadata":{}},{"output_type":"execute_result","data":{"text/plain":["BertModel(\n","  (embeddings): BertEmbeddings(\n","    (word_embeddings): Embedding(30522, 768, padding_idx=0)\n","    (position_embeddings): Embedding(512, 768)\n","    (token_type_embeddings): Embedding(2, 768)\n","    (LayerNorm): LayerNorm((768,), eps=1e-12, elementwise_affine=True)\n","    (dropout): Dropout(p=0.1, inplace=False)\n","  )\n","  (encoder): BertEncoder(\n","    (layer): ModuleList(\n","      (0-11): 12 x BertLayer(\n","        (attention): BertAttention(\n","          (self): BertSdpaSelfAttention(\n","            (query): Linear(in_features=768, out_features=768, bias=True)\n","            (key): Linear(in_features=768, out_features=768, bias=True)\n","            (value): Linear(in_features=768, out_features=768, bias=True)\n","            (dropout): Dropout(p=0.1, inplace=False)\n","          )\n","          (output): BertSelfOutput(\n","            (dense): Linear(in_features=768, out_features=768, bias=True)\n","            (LayerNorm): LayerNorm((768,), eps=1e-12, elementwise_affine=True)\n","            (dropout): Dropout(p=0.1, inplace=False)\n","          )\n","        )\n","        (intermediate): BertIntermediate(\n","          (dense): Linear(in_features=768, out_features=3072, bias=True)\n","          (intermediate_act_fn): GELUActivation()\n","        )\n","        (output): BertOutput(\n","          (dense): Linear(in_features=3072, out_features=768, bias=True)\n","          (LayerNorm): LayerNorm((768,), eps=1e-12, elementwise_affine=True)\n","          (dropout): Dropout(p=0.1, inplace=False)\n","        )\n","      )\n","    )\n","  )\n","  (pooler): BertPooler(\n","    (dense): Linear(in_features=768, out_features=768, bias=True)\n","    (activation): Tanh()\n","  )\n",")"]},"metadata":{},"execution_count":8}],"source":["tokenizer = BertTokenizer.from_pretrained('bert-base-uncased')\n","bert_model = BertModel.from_pretrained('bert-base-uncased')\n","bert_model.eval()"]},{"cell_type":"code","execution_count":9,"metadata":{"id":"Qnpzc-TGpS0W","executionInfo":{"status":"ok","times
…
